Neural-Network/mnist_cnn_model.pth (torch, 903328 bytes, 8 tensors)

conv1.weight f4 [32, 1, 3, 3]
-0.106429785 -0.31837893 0.26742035 -0.02008276 0.24784608 0.13293788 0.2961264 0.16936049
-0.4364338 -0.35686716 0.23741734 0.30629128 -0.2768721 -0.26090753 0.26991 -0.02671142
0.0035174037 0.42955327 0.043665968 -0.2302417 -0.20662078 -0.41915438 0.26814842 0.26283145
-0.19047007 0.1677267 0.34337327 -0.34051275 0.33711773 0.2040491 0.2457333 0.27466282
-0.17891781 0.07282768 -0.16802399 0.06601404 0.24191198 0.17561896 0.075747915 0.19986811
0.091210365 0.16795382 -0.34664568 -0.12331697 0.27633137 0.15714602 0.35012007 0.46986613
0.3081052 0.1407649 -0.35595512 -0.50488913 -0.46760902 -0.14666295 -0.3722135 -0.050404944
0.05042786 -0.25575718 0.07406167 -0.05928155 0.44214824 0.23167248 -0.0442683 0.28075826
0.11372678 -0.5206721 0.058014378 0.36904535 -0.28075805 -0.2451741 0.419178 -0.027466992
0.33989853 0.066486195 0.17550708 -0.037225857 0.07075809 0.025666526 -0.027526954 -0.31553346
-0.21734461 -0.26548016 0.08954043 0.30989453 -0.17515776 0.09143825 0.088151105 -0.08091298
0.04666445 0.16529746 0.1898289 0.28964767 -0.42308617 0.3678565 -0.3058641 -0.115809254
0.49237147 -0.31114984 -0.088831306 0.10829039 -0.46212533 -0.25348932 0.40251505 0.016637761
-0.3261432 0.27361616 0.4508691 0.16797312 0.22069004 -0.19060184 -0.19544218 0.31072783
-0.057115946 -0.18669209 0.15554558 -0.21228312 0.35773832 0.09414811 0.022605937 -0.3036472
0.16120856 0.08193169 0.3891661 -0.0494622 -0.27589783 -0.06481968 0.4218008 0.1382683
0.056707166 0.2477844 -0.16746606 -0.2686677 0.027225021 -0.37716347 -0.11390445 0.055807542
0.40116158 -0.09492534 -0.3133528 0.28879037 -0.032317642 -0.3318952 0.39148867 0.09338451
-0.21176936 0.017073672 -0.028307978 -0.13408661 -0.4409826 -0.29438138 0.44520175 0.40745664
0.2152205 0.13662109 0.3539831 0.1578226 -0.096771576 0.3281226 0.22434635 -0.35761178
0.31527793 0.17533506 -0.020618627 -0.30461678 0.23273946 -0.26905593 -0.018080285 0.040328607
-0.119917855 -0.016240265 0.38739008 0.028451929 -0.092105664 -0.50146705 0.0848555 0.46025613
-0.030030081 -0.14323749 -0.02834908 0.35090274 -0.10490515 0.23766305 0.0696646 0.3109538
0.19556476 0.22798903 -0.11522997 0.36027035 0.05583045 -0.004100745 0.38655135 0.19938402
-0.33366835 0.1021482 -0.31704485 -0.13777041 0.055659376 0.06898851 -0.4199591 -0.5762237
-0.06386182 -0.03141208 0.2746969 0.18104573 0.23282 0.47061613 -0.0069477567 0.26096246
-0.21329822 -0.22217782 0.12226577 -0.08286466 -0.2539741 0.33463752 -0.009827754 -0.1724051
-0.28477523 0.14351596 0.38965318 -0.13516656 0.36042452 0.039805725 0.39320612 0.3737349
-0.50792116 -0.21372637 0.106198 0.2711619 -0.29085398 0.0398742 0.39481395 -0.13997974
-0.3214695 0.17153686 -0.012698066 0.014845137 -0.3949596 0.3977189 0.39738846 0.08749765
-0.29949933 0.20893493 0.26849133 -0.0074020326 -0.20289187 -0.08142953 0.1164206 -0.0018624215
-0.12566847 0.088718124 -0.22389922 0.07240075 0.02291508 0.3529631 0.37473044 -0.37825918
00000000: dcf7 d9bd 9002 a3be 52eb 883e 9a84 a4bc
00000010: 5dcb 7d3e de20 083e e19d 973e d66c 2d3e
00000020: 4074 dfbe 4bb7 b6be 881d 733e 36d2 9c3e
00000030: 2ec2 8dbe ac95 85be a531 8a3e e8d1 dabc
00000040: 3e84 663b 68ee db3e 16db 323d 7bc4 6bbe
00000050: 6694 53be 679b d6be c04a 893e d891 863e
00000060: 960a 43be 8cc0 2b3e 9fce af3e b057 aebe
00000070: b29a ac3e 3ff2 503e 83a1 7b3e 9ba0 8c3e
00000080: 3b36 37be ae26 953d 7b0e 2cbe 5e32 873d
00000090: c6b7 773e 75d5 333e b921 9b3d 3aaa 4c3e
000000a0: 80cc ba3d 16fc 2b3e 8b7b b1be 9c8d fcbd
000000b0: 4e7b 8d3e e3ea 203e f042 b33e 4b92 f03e
000000c0: f7bf 9d3e ad24 103e c03f b6be 6a40 01bf
000000d0: 736a efbe d02e 16be c592 bebe 6a75 4ebd
000000e0: 728d 4e3d 9bf2 82be a5ad 973d 36d1 72bd
000000f0: 4161 e23e 8d3b 6d3e ad52 35bd 8cbf 8f3e
00000100: 96e9 e83d c44a 05bf 7ca0 6d3d 83f3 bc3e
00000110: 85bf 8fbe eb0e 7bbe 809e d63e 7502 e1bc
00000120: 2e07 ae3e ea29 883d 21b8 333e 247a 18bd
00000130: 9ee9 903d 9b42 d23c 3580 e1bc 9a8d a1be
00000140: 968f 5ebe 04ed 87be f960 b73d 7faa 9e3e
00000150: 8e5c 33be fa43 bb3d 9188 b43d b4b5 a5bd
00000160: 3923 3f3d bd43 293e 8262 423e b34c 943e
00000170: c09e d8be b057 bc3e 389a 9cbe 672d edbd
00000180: 1d18 fc3e 084f 9fbe 30ed b5bd 5ac7 dd3d
00000190: b19b ecbe 5ac9 81be 7416 ce3e ea4b 883c
000001a0: 3efc a6be 6b17 8c3e 51d8 e63e 2501 2c3e
000001b0: 92fc 613e 212d 43be ff21 48be b817 9f3e
000001c0: 69f2 69bd 362c 3fbe 5747 1f3e bf60 59be
000001d0: 7a29 b73e b9d0 c03d 1630 b93c a577 9bbe
000001e0: db13 253e cdcb a73d c740 c73e e098 4abd
000001f0: 7b42 8dbe 2ec0 84bd 46f6 d73e 3596 0d3e
00000200: c645 683d 32bb 7d3e 397c 2bbe d08e 89be
00000210: 0207 df3c 921b c1be bc46 e9bd 7396 643d
00000220: 0d65 cd3e 3768 c2bd c76f a0be 55dc 933e
00000230: 815f 04bd 2bee a9be 3471 c83e 6140 bf3d
00000240: 11da 58be 16de 8b3c 22e6 e7bc 004e 09be
00000250: 79c8 e1be 28b9 96be 7cf1 e33e 289e d03e
00000260: c362 5c3e 66e6 0b3e 463d b53e 3f9c 213e
00000270: 2d30 c6bd afff a73e 0dbb 653e e418 b7be
00000280: 1c6c a13e 098b 333e 65e8 a8bc bbf6 9bbe
00000290: 4153 6e3e b3c1 89be 1b1d 94bc 9c2f 253d
000002a0: 7e97 f5bd 4e0a 85bc fe57 c63e 0514 e93c
000002b0: e5a1 bcbd 2560 00bf b8c8 ad3d b1a6 eb3e
000002c0: a501 f6bc d9ac 12be 543c e8bc 86a9 b33e
000002d0: 83d8 d6bd f15d 733e 50ac 8e3d 5635 9f3e
000002e0: 2142 483e f575 693e b1fd ebbd 5b75 b83e
000002f0: 78ae 643d 8b5f 86bb 0fea c53e 532b 4c3e
00000300: 94d6 aabe 1333 d13d b453 a2be b013 0dbe
00000310: 16fb 633d d949 8d3d e104 d7be 6583 13bf
00000320: fcc9 82bd f4a9 00bd 12a5 8c3e 0d64 393e
00000330: 5e68 6e3e 99f4 f03e 02aa e3bb df9c 853e
00000340: d96a 5abe 9582 63be 7a66 fa3d f2b4 a9bd
00000350: e508 82be 9c55 ab3e 9704 21bc f68a 30be
00000360: 0fce 91be d9f5 123e 9f80 c73e 1a69 0abe
00000370: 9089 b83e 540b 233d 5052 c93e 2e5a bf3e
00000380: 1f07 02bf 16db 5abe 567e d93d bcd5 8a3e
00000390: d0ea 94be 2153 233d 0e25 ca3e d956 0fbe
000003a0: a697 a4be 5ca7 2f3e 8d0b 50bc 0439 733c
000003b0: 2538 cabe d0a1 cb3e 8076 cb3e f831 b33d
000003c0: fa57 99be 0af3 553e b277 893e c08c f2bb
000003d0: e3c2 4fbe 87c4 a6bd ec6d ee3d 7f1c f4ba
000003e0: 3caf 00be d9b1 b53d d645 65be d846 943d
000003f0: 68b8 bb3c 94b7 b43e abdc bf3e 30ab c1be

conv1.bias f4 [32]
0.11567808 -0.28239116 -0.010360975 -0.086352564 0.102232195 -0.027389484 0.009679391 0.08437891
0.09491569 -0.055376768 -0.15955503 -0.20088373 0.002257182 0.055247076 -0.012915802 -0.06695005
-0.087008 -0.1104981 -0.20104322 0.10040902 0.07619544 -0.046782028 -0.12871581 0.0294096
-0.14096491 -0.014275296 0.018576158 -0.106506445 -0.16438155 -0.29216176 -0.23825505 -0.0715252
00000000: a1e8 ec3d 9395 90be 14c1 29bc 9dd9 b0bd
00000010: 1d5f d13d e95f e0bc 4f96 1e3c dace ac3d
00000020: 2863 c23d c0d2 62bd 6562 23be 77b4 4dbe
00000030: 3bed 133b c24a 623d cd9c 53bc 1c1d 89bd
00000040: 4031 b2bd d44c e2bd 46de 4dbe 3fa3 cd3d
00000050: 5b0c 9c3d 839e 3fbd 14ce 03be 67ec f03c
00000060: 1b59 10be eee2 69bc 072d 983c 0d20 dabd
00000070: a353 28be 3a96 95be 22f9 73be ce7b 92bd

conv2.weight f4 [64, 32, 3, 3]
0.12063631 -0.069803 -0.09401736 -0.00959105 0.07485661 0.059200104 0.12708454 0.16483815
0.017344574 0.058916 0.09929623 -0.11066107 -0.074508965 0.11115636 0.10693673 -0.05878637
-0.025189955 0.10533743 -0.045081776 0.08367 0.017791944 -0.09527512 -0.019641852 -0.023956938
0.04849376 0.046919554 -0.03695707 0.05121916 -0.043267656 -0.1118854 -0.103543505 -0.10270559
-0.020990497 -0.015136868 0.11003774 0.10465448 0.050680377 0.085393704 0.018478524 -0.009573971
-0.022125613 -0.060307976 -0.03952365 -0.060110543 0.03904472 0.023605201 0.07185097 -0.20593233
-0.029533012 -0.07057505 -0.16972539 0.10412431 0.1620832 0.09708171 -0.10176066 -0.017457977
-0.033945784 -0.029990317 0.019589432 -0.06549741 0.09898316 0.12068815 0.15847309 0.028919794
0.11787888 0.16429171 -0.044018995 -0.08432907 0.09466087 0.0553021 -0.09370868 0.00021441211
0.006937816 -0.02425449 -0.1426766 -0.041945107 -0.1485123 -0.10098455 -0.009678184 0.050975453
-0.024723105 0.06566473 0.033721145 -0.10312226 -0.09079908 0.09074138 0.11210015 -0.1453349
0.008822584 0.02939566 0.07374693 -0.07437221 0.19780016 0.052230943 -0.06507529 0.11121319
-0.07979807 0.011716663 0.067483544 0.0027436244 0.16052015 0.14089629 0.08610065 -0.08528993
-0.07591464 0.17142351 -0.052797858 -0.108533345 -0.0006663998 -0.028603923 0.054834016 -0.014205777
-0.02280827 -0.049571432 0.039564986 -0.045816254 -0.042513546 0.109719664 0.14015797 0.02531068
-0.033106133 -0.076572545 0.05382554 -0.031814434 0.028725378 0.018364716 0.08161275 -0.059891596
-0.15975665 -0.024129167 -0.08627996 0.016047003 0.03237444 0.14851972 0.03950813 -0.08147251
0.118953004 0.07967961 0.022928152 0.03736183 0.11472469 -0.055202644 -0.06316716 -0.06377303
-0.085297845 -0.13667122 0.054148007 0.086996876 0.047199246 -0.15235326 0.1314978 0.087303795
0.009579502 0.0070475917 0.033824757 -0.052466094 -0.05712333 -0.070275016 0.08235543 -0.08637283
-0.08234273 -0.04490979 -0.06498332 -0.0011825147 -0.1297324 -0.011532917 0.08082856 0.0010543182
0.035191137 -0.018691393 0.040228475 0.09193301 0.13310309 0.15816966 0.024723854 -0.032491215
0.038363513 0.15867634 -0.0035176517 -0.020959929 0.01149725 -0.017502133 -0.042037256 -0.0037859967
-0.0931302 -0.026362287 -0.053268887 -0.032009162 0.051456366 0.056332633 0.098975904 0.019777982
0.05301405 0.06335478 0.082672365 0.060785368 0.019881597 -0.10284937 -0.028649032 -0.094178356
-0.11777816 -0.0056994297 -0.014191513 -0.13255467 0.14502734 0.26865888 0.023008268 -0.09966732
-0.104464926 0.06317094 -0.024926094 -0.136005 -0.047027405 -0.055744827 -0.18170182 -0.06605841
0.0830134 -0.09156585 -0.10580824 -0.064096846 0.039782036 0.015122771 0.02256566 0.21300466
0.09361025 0.004646294 0.15298522 -0.06404412 -0.06694867 0.06325421 0.018379616 -0.08092158
-0.0669301 -0.090699956 0.03335415 0.13122535 0.11759832 -0.041893966 -0.060214132 -0.042558886
0.094373874 -0.12460625 -0.06096748 -0.040699948 -0.11527298 0.001398571 -0.022672 -0.11268419
-0.12089054 -0.114685215 -0.18610846 -0.0071455794 0.1166509 0.08243853 0.049550295 0.0038374378
00000000: 2b10 f73d e0f4 8ebd 2c8c c0bd c823 1dbc
00000010: 6c4e 993d cf7b 723d 7322 023e 55cb 283e
00000020: 3516 8e3c e751 713d d25b cb3d 45a2 e2bd
00000030: 2898 98bd f2a5 e33d a501 db3d fac9 70bd
00000040: 2a5b cebc 27bb d73d aba7 38bd 2d5b ab3d
00000050: 69c0 913c 9a1f c3bd f3e7 a0bc 5741 c4bc
00000060: 65a1 463d b82e 403d 4c60 17bd 2fcb 513d
00000070: 6d39 31bd 2c24 e5bd 9e0e d4bd 4f57 d2bd
00000080: 43f4 abbc a000 78bc 775b e13d 1755 d63d
00000090: 3a96 4f3d e5e2 ae3d 4660 973c 25dc 1cbc
000000a0: c640 b5bc 7f05 77bd 8de3 21bd 7936 76bd
000000b0: 5bed 1f3d b25f c13c 9a26 933d eddf 52be
000000c0: 37ef f1bc a789 90bd 7ecc 2dbe 203f d53d
000000d0: 23f9 253e c7d2 c63d e567 d0bd 0804 8fbc
000000e0: bc0a 0bbd 41ae f5bc 047a a03c 8223 86bd
000000f0: afb7 ca3d 592b f73d c546 223e 34e9 ec3c
00000100: 7b6a f13d 163c 283e 434d 34bd b8b4 acbd
00000110: 8fdd c13d 7484 623d 56ea bfbd d0d3 6039
00000120: 9e56 e33b 5ab1 c6bc d119 12be a2ce 2bbd
00000130: 9c13 18be fdd0 cebd 3f91 1ebc a3cb 503d
00000140: 1c88 cabc 3b7b 863d 2f1f 0a3d c331 d3bd
00000150: def4 b9bd 9ed6 b93d c394 e53d acd2 14be
00000160: 998c 103c 2bcf f03c a108 973d 7550 98bd
00000170: 208c 4a3e 1df0 553d 3246 85bd bec3 e33d
00000180: 2c6d a3bd 3ff7 3f3c d034 8a3d 61ce 333b
00000190: 655f 243e 1e47 103e 8a55 b03d 7dac aebd
000001a0: 2379 9bbd a589 2f3e 9142 58bd bb46 debd
000001b0: 55b1 2eba c652 eabc a299 603d 59bf 68bc
000001c0: 69d8 babc 6a0b 4bbd e50e 223d d3a9 3bbd
000001d0: af22 2ebd b4b4 e03d 9285 0f3e 5858 cf3c
000001e0: 4c9a 07bd 11d2 9cbd 2b78 5c3d da4f 02bd
000001f0: 7c51 eb3c 9a71 963c 9624 a73d e450 75bd
00000200: 3f97 23be 88aa c5bc 8cb3 b0bd 0175 833c
00000210: 109b 043d 8e15 183e 47d3 213d 0fdb a6bd
00000220: a29d f33d 102f a33d d2d3 bb3c b808 193d
00000230: c7f4 ea3d 2b1c 62bd c95d 81bd 6f9b 82bd
00000240: a3b0 aebd 8af3 0bbe 4dca 5d3d 6b2b b23d
00000250: ff53 413d 7e02 1cbe 5ca7 063e 55cc b23d
00000260: 58f3 1c3c 7cef e63b d48b 0a3d b0e6 56bd
00000270: 27fa 69bd 59ec 8fbd f7a9 a83d 3de4 b0bd
00000280: 4ea3 a8bd 54f3 37bd fa15 85bd 9cfe 9aba
00000290: 92d8 04be 8ff4 3cbc 7289 a53d 0c31 8a3a
000002a0: 9524 103d b11e 99bc 9dc6 243d 6047 bc3d
000002b0: 2d4c 083e 3af7 213e ae89 ca3c 8215 05bd
000002c0: 0f23 1d3d 0d7c 223e 6788 66bb 28b4 abbc
000002d0: f65e 3c3c a260 8fbc 422f 2cbd 7c1e 78bb
000002e0: 0cbb bebd b9f5 d7bc 7a30 5abd 0a1c 03bd
000002f0: e9c3 523d 0cbd 663d e1b3 ca3d 6f05 a23c
00000300: 4325 593d 27c0 813d 2150 a93d 14fa 783d
00000310: bbde a23c b1a2 d2bd 60b1 eabc 95e0 c0bd
00000320: ad35 f1bd 48c2 babb 8583 68bc 69bc 07be
00000330: 0c82 143e a88d 893e d67b bc3c 611e ccbd
00000340: b5f1 d5bd c45f 813d cf31 ccbc e544 0bbe
00000350: cf9f 40bd b054 64bd 0b10 3abe a249 87bd
00000360: ee02 aa3d e086 bbbd feb1 d8bd 3545 83bd
00000370: 7df2 223d 80c5 773c 9edb b83c e51d 5a3e
00000380: bbb6 bf3d f03f 983b 28a8 1c3e 9029 83bd
00000390: 621c 89bd 6c8b 813d d990 963c 37ba a5bd
000003a0: a612 89bd e6c0 b9bd 5c9e 083d f05f 063e
000003b0: 63d7 f03d 0299 2bbd 18a3 76bd 3a52 2ebd
000003c0: 1747 c13d 9031 ffbd 09b9 79bd fdb4 26bd
000003d0: 3d14 ecbd 4150 b73a a1ba b9bc f8c6 e6bd
000003e0: 7695 f7bd 15e0 eabd 3793 3ebe 7725 eabb
000003f0: abe6 ee3d 88d5 a83d 40f5 4a3d 867d 7b3b

conv2.bias f4 [64]
-0.0815223 -0.021591477 0.008608285 -0.053184904 -0.0032661995 0.024966836 0.0063083665 0.024679909
-0.047873423 0.031452175 -0.036812782 0.01595508 -0.024584893 -0.0347874 0.028564716 0.03831534
0.051099047 -0.0679155 -0.073534116 -0.02025275 -0.0017398858 0.012053715 -0.06183157 -0.022165705
-0.03169589 0.02311525 -0.05925132 -0.015471877 -0.07232083 -0.018310161 0.04016621 0.046952445
0.036606494 -0.04349398 0.03272678 -0.014754781 -0.03242353 -0.07073037 0.0048627974 -0.03940021
-0.028620763 -0.07841657 -0.04329085 0.0012580835 0.011533395 -0.02822131 -0.07574187 0.035410095
-0.04744858 0.038599446 0.014024286 0.0030755962 0.00023826014 0.013082732 -0.012959343 -0.039376903
-0.022910489 -0.021231303 0.016841596 -0.07518678 -0.058937777 -0.036285583 -0.06651749 0.022717208
00000000: 2af5 a6bd 9ce0 b0bc c409 0d3c 6ad8 59bd
00000010: bc0d 56bb 4087 cc3c 6ab6 ce3b 852d ca3c
00000020: ec16 44bd ffd3 003d 00c9 16bd 3ab4 823c
00000030: 4266 c9bc 3c7d 0ebd 8d00 ea3c 8cf0 1c3d
00000040: 3c4d 513d 4817 8bbd 0e99 96bd 18e9 a5bc
00000050: e10c e4ba f27c 453c 1a43 7dbd da94 b5bc
00000060: 8dd3 01bd 315c bd3c 83b1 72bd c17d 7dbc
00000070: f11c 94bd 31ff 95bc 5385 243d 3551 403d
00000080: b1f0 153d be26 32bd 840c 063d 09be 71bc
00000090: 89ce 04bd 16db 90bd 1a58 9f3b 1d62 21bd
000000a0: 1776 eabc de98 a0bd bf51 31bd 47e6 a43a
000000b0: 91f6 3c3c 6030 e7bc 8e1e 9bbd 2d0a 113d
000000c0: 7159 42bd 741a 1e3d 1ec6 653c f18f 493b
000000d0: 78d5 7939 f558 563c 6d53 54bc ad49 21bd
000000e0: c7ae bbbc 45ed adbc 63f7 893c 87fb 99bd
000000f0: bd68 71bd 31a0 14bd 523a 88bd 7019 ba3c

fc1.weight f4 [128, 1600]
0.009957082 -0.00069071254 0.06456735 0.004281973 -0.0048662084 -0.010999603 0.045877907 -0.049421307
-0.06874144 0.020978661 0.041646395 0.03117285 0.12966986 -0.056962583 -0.037402507 -0.0097632
0.05601294 -0.03601981 0.026129346 -0.07766457 -0.01823467 -0.06829298 -0.07877147 -0.03446201
-0.06494829 0.019311562 0.011404881 0.013257117 -0.02443397 0.019371223 0.00327812 -0.033256337
0.016927691 0.0043453723 0.07120676 -0.00255426 0.025896575 -0.032614693 0.016538389 0.024247052
-0.0017011059 -0.013536695 0.05767751 0.04747542 -0.061576996 -0.009606772 -0.014904373 0.039356
-0.011910344 -0.015996894 -0.0061682495 -0.03842905 -0.04221499 -0.047745112 0.060867205 -0.050182227
-0.008481102 -0.030443119 0.0021294279 0.057162598 -0.030296627 -0.009560428 0.07338331 0.04167582
0.03217731 -0.07471565 -0.02430641 0.05811511 -0.018688321 0.009456907 -0.025587624 -0.0013983586
0.01700568 0.008307658 0.009779402 -0.051469572 -0.050058987 -0.038871314 -0.01597292 -0.039046124
-0.051420096 0.020758146 0.0998847 -0.029573437 -0.0050236257 -0.008824015 -0.028554693 0.12093928
-0.029073177 -0.047752485 -0.0051355152 -0.05790636 0.09023976 -0.053900257 -0.022066113 -0.043849535
0.05618542 -0.0039195423 0.054923784 -0.051611476 0.016344577 0.03492995 -0.004614266 0.0053761373
-0.04986504 0.04327333 0.0023806149 -0.021710206 -0.027743805 0.010967316 0.0925094 0.04638002
0.0110048335 0.00455405 -0.00072777516 0.07551141 0.048676033 -0.044375543 -0.04518191 -0.04628557
-0.004376437 0.0026185561 -0.043998465 -0.032252073 -0.025945548 -0.03768373 0.005791715 -0.047138378
-0.012129313 -0.017965022 0.014797985 0.046230476 0.011985667 -0.027271707 -0.016085874 0.11856654
0.013695587 0.0070138653 -0.02529567 -0.007749959 0.037719827 -0.07065949 -0.059098914 -0.0060805012
-0.030171156 -0.1014591 -0.056242175 0.029416442 0.00952076 -0.029205179 -0.028904626 0.014231469
-0.004427983 -0.021560708 -0.010425931 0.04602471 0.045662254 -0.02510984 -0.05599737 -0.030216802
0.14264631 0.10465702 -0.008206775 -0.009078181 0.04271366 0.1070816 0.10176677 -0.022252576
-0.000939031 0.086024076 -0.052284703 -0.061240483 0.013877922 0.06380175 0.033868436 0.00087652926
-0.0051821237 -0.02171011 -0.019676302 -0.040989302 0.016955607 0.046922427 0.0444466 0.0053628227
0.0270979 0.052981857 0.020160204 -0.03566339 0.07851194 -0.03545687 -0.016438503 0.038770135
0.08774083 0.10959147 -0.09918953 -0.052257616 0.018062336 0.061551757 0.07840019 0.041754756
0.048731394 0.009354005 -0.015949516 -0.025617171 -0.051385704 -0.0072745294 0.012647315 -0.034442186
-0.084417455 -0.08381809 0.07698025 0.091878675 -0.0020964686 -0.08419557 -0.030890342 -0.010946304
0.024137923 0.020039605 -0.014020011 0.008403264 -0.035681564 -0.0858518 -0.0392471 -0.011129464
-0.037799507 0.07087799 -0.011903092 -0.02686508 0.07486966 0.04131647 -0.012172424 0.0133348415
-0.0016357943 -0.019737 -0.008468837 -0.00469836 0.023650855 -0.018871428 -0.05087656 0.045422573
0.024975844 -0.0070171393 -0.029337503 -0.06032643 -0.008899708 -0.050338216 -0.07182293 -7.7413846e-05
0.017423527 -0.010465339 0.019898925 0.062538065 0.12091248 0.045024667 0.062389363 0.022235129
00000000: 0723 233c ef10 35ba e33b 843d cb4f 8c3b
00000010: b774 9fbb ae37 34bc 79ea 3b3d ff6d 4abd
00000020: 50c8 8cbd 71db ab3c 6995 2a3d 345e ff3c
00000030: 2dc8 043e 9951 69bd 5f33 19bd d4f5 1fbc
00000040: d36d 653d 8289 13bd 360d d63c 9a0e 9fbd
00000050: e060 95bc 31dd 8bbd f052 a1bd 0928 0dbd
00000060: 9c03 85bd 4833 9e3c 8adb 3a3c 6134 593c
00000070: c029 c8bc 66b0 9e3c bad5 563b cc37 08bd
00000080: f1ab 8a3c a063 8e3b dad4 913d 5f65 27bb
00000090: 0e25 d43c fc96 05bd 847b 873c c1a1 c63c
000000a0: a4f7 deba 04c9 5dbc 413f 6c3d 9675 423d
000000b0: 2938 7cbd b965 1dbc 7931 74bc c233 213d
000000c0: 9a23 43bc eb0b 83bc 071f cabb c867 1dbd
000000d0: a0e9 2cbd 6190 43bd e44f 793d e18b 4dbd
000000e0: 52f4 0abc d963 f9bc df8d 0b3b 5423 6a3d
000000f0: a230 f8bc 57a3 1cbc fd49 963d 44b4 2a3d
00000100: 5bcc 033d 8504 99bd 3d1e c7bc 1c0a 6e3d
00000110: 4018 99bc 25f1 1a3c 239d d1bc 2149 b7ba
00000120: 7f4f 8b3c d81c 083c c939 203c c2d1 52bd
00000130: a70a 4dbd 8737 1fbd a4d9 82bc d4ee 1fbd
00000140: e19d 52bd fd0c aa3c 5990 cc3d fe43 f2bc
00000150: 3a9d a4bb 9a92 10bc 88eb e9bc 03af f73d
00000160: df2a eebc 1c98 43bd d347 a8bb 382f 6dbd
00000170: a0cf b83d 84c6 5cbd fec3 b4bc 929b 33bd
00000180: af22 663d 816f 80bb c3f7 603d 8e66 53bd
00000190: 10e5 853c b512 0f3d 4533 97bb 4f2a b03b
000001a0: 493f 4cbd 603f 313d 1704 1c3b 9ad9 b1bc
000001b0: fa46 e3bc 42b0 333c 9175 bd3d faf8 3d3d
000001c0: 9e4d 343c 243a 953b 2ac8 3eba baa5 9a3d
000001d0: 8560 473d 21c3 35bd ab10 39bd f095 3dbd
000001e0: 3768 8fbb 159c 2b3b bc37 34bd c01a 04bd
000001f0: c28b d4bc 415a 1abd 6dc8 bd3b 2c14 41bd
00000200: 07ba 46bc 622b 93bc 3f73 723c 2b5c 3d3d
00000210: 885f 443c ea68 dfbc 86c6 83bc 04d3 f23d
00000220: 7563 603c 91d4 e53b dd38 cfbc 5ef3 fdbb
00000230: 1b80 1a3d ecb5 90bd b411 72bd f13e c7bb
00000240: 8029 f7bc cac9 cfbd 325e 66bd c0fa f03c
00000250: f6fc 1b3c b33f efbc 65c9 ecbc 1b2b 693c
00000260: 9d18 91bb 15a0 b0bc 86d1 2abc 6884 3c3d
00000270: 5808 3b3d 27b3 cdbc 805d 65bd 3a89 f7bc
00000280: e011 123e 6b56 d63d b675 06bc a7bc 14bc
00000290: 85f4 2e3d 994d db3d 196b d03d 094b b6bc
000002a0: 4e29 76ba 642d b03d 7c28 56bd 4dd7 7abd
000002b0: 3960 633c 7eaa 823d a1b9 0a3d e2c6 653a
000002c0: cece a9bb 67d9 b1bc 3230 a1bc 66e4 27bd
000002d0: 7ce6 8a3c bb31 403d a30d 363d 9eba af3b
000002e0: 6afc dd3c 8103 593d 0327 a53c c613 12bd
000002f0: deca a03d 393b 11bd 0aaa 86bc 6fcd 1e3d
00000300: 77b1 b33d 7e71 e03d e123 cbbd 150c 56bd
00000310: 77f7 933c b21d 7c3d 4790 a03d 0907 2b3d
00000320: 929a 473d 8a41 193c 8fa8 82bc 1adb d1bc
00000330: d179 52bd 2d5f eebb af36 4f3c 4013 0dbd
00000340: 0fe3 acbd d2a8 abbd d2a7 9d3d e32a bc3d
00000350: e864 09bb ba6e acbd be0d fdbc 2058 33bc
00000360: e5bc c53c 192a a43c 30b4 65bc d8ad 093c
00000370: d526 12bd 12d3 afbd 91c1 20bd 5b58 36bc
00000380: a8d3 1abd 7b28 913d 3005 43bc 2814 dcbc
00000390: 4455 993d 753b 293d d96e 47bc 617a 5a3c
000003a0: 2668 d6ba 7daf a1bc e0c0 0abc b3f4 99bb
000003b0: 70bf c13c 4198 9abc f163 50bd 050d 3a3d
000003c0: 249a cc3c 08f0 e5bb 3455 f0bc d918 77bd
000003d0: 15d0 11bc 722f 4ebd e617 93bd 3e59 a2b8
000003e0: c9bb 8e3c d076 2bbc 1203 a33c f513 803d
000003f0: f6a0 f73d c96b 383d fd8b 7f3d 7226 b63c

fc1.bias f4 [128]
0.05762074 -0.028040562 -0.014640229 -0.02092221 0.05276223 0.019910472 -0.017147234 -0.029457096
0.039525956 0.0016420697 0.02958748 -0.07838289 -0.013803947 0.001180369 -0.02317397 0.0035074742
0.037007853 -0.018618044 0.00077902933 -0.038013216 0.0049227406 -0.017062275 0.02877325 -0.008608449
-0.0017500649 0.007641743 0.037831016 -0.039804883 -0.002372159 0.027438272 -0.010346892 0.031656668
0.039485674 0.03025321 0.040898126 -0.0038454765 0.016203748 0.024250766 0.016590787 0.023795635
-0.007872033 -0.022783749 0.054472946 -0.046758372 0.003148486 -0.015490907 -0.014100448 -0.0032087758
0.026618373 -0.019836843 0.019041007 0.025694307 0.021102628 -0.025770172 -0.015455155 -0.012874744
0.019046636 0.044435646 -0.017081799 -0.022689708 -0.018514782 -0.036851637 -0.009455224 0.029020755
0.022592742 0.0033228414 -0.012770844 -0.0052313004 -0.042841084 -0.014716566 -0.0038886778 -0.024349554
0.0368845 -0.016769508 -0.056171253 -0.013028845 0.0038562359 -0.023171725 0.0016610499 0.014040819
0.011779137 0.04693186 -0.019967567 -0.00717852 -0.0027047524 0.030382007 0.006468548 -0.007989012
-0.0055005145 -0.0020769627 0.014043804 0.010423393 -0.021075247 -0.022889001 0.0230181 -0.008156405
-0.027601346 -0.007249748 -0.052669734 -0.043522496 -0.01888597 0.047615495 -0.011555232 0.026687957
-0.0038127166 -0.005559908 -0.015824717 -0.02794077 -0.0060943235 -0.019791191 -0.0013909813 -0.024377411
0.03310941 0.04017068 0.014477662 -0.0017743695 -0.009388878 0.045396507 0.027438305 0.024605166
-0.02532656 0.011501862 -0.010417614 -0.00953447 -0.001548084 0.019199407 0.022240339 0.002027015
00000000: ba03 6c3d 52b5 e5bc 92dd 6fbc 0e65 abbc
00000010: 351d 583d 491b a33c 5b78 8cbc 0250 f1bc
00000020: f8e5 213d b73a d73a 7161 f23c 3587 a0bd
00000030: f329 62bc 9db6 9a3a 56d7 bdbc a7dd 653b
00000040: 8c95 173d de84 98bc c637 4c3a bfb3 1bbd
00000050: f14e a13b 2fc6 8bbc e1b5 eb3c 740a 0dbc
00000060: 6f62 e5ba 9667 fa3b b2f4 1a3d 720a 23bd
00000070: 3976 1bbb 3ac6 e03c 0386 29bc 6caa 013d
00000080: bbbb 213d 94d5 f73c cb84 273d 6404 7cbb
00000090: b9bd 843c 8ba9 c63c 67e9 873c 10ef c23c
000000a0: b3f9 00bc fca4 babc 061f 5f3d b585 3fbd
000000b0: d456 4e3b 93cd 7dbc 9105 67bc 534a 52bb
000000c0: c60e da3c e080 a2bc e3fb 9b3c de7c d23c
000000d0: 6bdf ac3c f81b d3bc 9e37 7dbc 97f0 52bc
000000e0: b107 9c3c 2702 363d 21ef 8bbc c4df b9bc
000000f0: 50ac 97bc bef1 16bd 15ea 1abc efbc ed3c
00000100: 6a14 b93c 07c4 593b cd3c 51bc 546b abbb
00000110: 227a 2fbd c01d 71bc 30d9 7ebb b778 c7bc
00000120: 3414 173d 3560 89bc d413 66bd f076 55bc
00000130: e7b8 7c3b a1d2 bdbc 96b7 d93a 770b 663c
00000140: 48fd 403c 9f3b 403d 0693 a3bc ca39 ebbb
00000150: 3742 31bb b0e3 f83c 1df6 d33b 58e4 02bc
00000160: a93d b4bb a71d 08bb fc17 663c e1c6 2a3c
00000170: ffa5 acbc b781 bbbc 7490 bc3c 71a2 05bc
00000180: 381c e2bc 4b8f edbb 38bc 57bd a544 32bd
00000190: c0b6 9abc 7708 433d 2852 3dbc b4a0 da3c
000001a0: c5de 79bb e42f b6bb d6a2 81bc 0be4 e4bc
000001b0: e4b2 c7bb 2321 a2bc 9651 b6ba 23b3 c7bc
000001c0: bc9d 073d 038a 243d b733 6d3c f691 e8ba
000001d0: cfd3 19bc b0f1 393d 4cc6 e03c c690 c93c
000001e0: a579 cfbc 4e72 3c3c a4ae 2abc 7736 1cbc
000001f0: 14e9 caba 1348 9d3c 5f31 b63c abd7 043b

fc2.weight f4 [10, 128]
0.06403828 0.07186922 0.05564946 0.090275005 0.08887327 0.08100678 -0.049367033 -0.25335577
0.109083824 -0.026362332 -0.13548414 -0.13100474 -0.10066942 -0.06433611 0.0650413 -0.05646573
-0.04015872 0.018541992 0.045929514 -0.080112964 0.053961236 0.0024316977 -0.14857017 -0.13042377
0.14319417 0.09004029 0.017438458 -0.10134174 -0.070852555 0.080659 0.027628414 0.06953592
0.049070287 0.03301945 0.023381323 0.08443666 -0.079664834 0.04329201 -0.1629177 -0.17955488
0.07712475 0.06632269 -0.13513623 -0.098375656 0.026283886 0.01799796 -0.06544141 -0.023371438
0.05760475 0.026080044 0.08479447 -0.14579554 0.07920651 0.005246803 0.0810064 0.035886083
0.055864718 0.033635654 0.01629404 -0.16212018 -0.04880074 -0.062994145 0.0076366174 0.11334743
-0.11325462 -0.07270143 -0.12482896 0.04629788 0.011098805 0.02134128 0.039781664 0.0113213
0.02860571 0.021188326 -0.039198652 -0.051371507 0.0960936 -0.02105204 0.10453033 0.07092605
-0.17535402 -0.042028643 -0.046672028 -0.07299447 -0.29585493 0.077228636 -0.21178216 -0.010156328
0.06462535 -0.020101335 0.083823346 0.03278859 0.014549671 -0.12823531 -0.085835114 -0.05162442
-0.03983006 -0.033403408 -0.0920188 -0.06042854 0.03147604 -0.10783167 -0.015186486 0.05078381
0.045425642 -0.16119188 -0.0053590112 -0.02650283 -0.014275755 -0.00031191672 0.023200464 0.016850911
0.11000579 0.034418955 0.07952299 -0.13568753 -0.08566713 0.08163246 0.0065006563 -0.2253759
-0.010735969 -0.018319245 -0.1698604 -0.0628007 -0.16398521 -0.05816273 0.06829442 -0.034190048
0.06916899 -0.045580406 0.04166143 -0.06381515 0.046196446 0.020298032 0.1263106 -0.04289711
-0.11250969 -0.1338412 0.045996618 0.11342777 -0.10742842 -0.02272136 0.020282444 -0.040172365
0.115938626 -0.15284356 -0.019405276 -0.120493926 -0.13699426 -0.08394056 0.099289134 -0.16512153
-0.08840491 -0.13579799 0.06109802 0.021118416 -0.17270854 -0.06490443 -0.07144842 0.15564843
0.036182545 0.11571651 0.036520876 -0.10438762 -0.0061593764 0.024595354 0.06306937 0.100856364
-0.07165331 -0.028815472 0.07075749 -0.09557226 -0.017669516 -0.049560513 0.06643428 0.007940983
0.11857983 -0.012659733 0.0801239 0.091521166 0.14624727 0.02876977 -0.039478518 -0.08163894
-0.097450666 -0.18730134 0.073707 -0.109648034 0.05717234 0.03639289 0.074436024 -0.056197915
0.121498406 0.08070947 -0.0037965835 0.08015502 -0.01671771 -0.065920584 0.015111111 -0.07759202
0.093762584 -0.0059329374 -0.07733603 0.06298677 -0.14977983 -0.040547267 0.03735501 -0.103598766
0.038865123 0.1396545 0.031032868 -0.05650583 0.057060383 0.060407065 -0.08943045 -0.057921443
-0.07173487 -0.027100792 -0.08418447 -0.06399589 0.038976163 -0.0022887394 0.14055553 -0.0050132084
0.050804596 -0.060296986 0.04748994 -0.10472274 -0.078525715 0.08810089 -0.07514255 -0.049254123
0.033994306 0.05755597 -0.083094895 -0.018401494 0.0053503383 0.04281555 -0.11735683 -0.055997238
0.10685842 -0.18239921 0.051918484 0.009331108 -0.061393596 -0.14221878 0.032019667 -0.0040541193
-0.09226981 -0.08071617 -0.07137623 0.068802156 -0.090278015 0.1185067 -0.07081922 0.04434388
00000000: 8026 833d 2b30 933d b0f0 633d 1ae2 b83d
00000010: 3003 b63d e2e6 a53d 1635 4abd d9b7 81be
00000020: 5767 df3d d1f5 d7bc 5bbc 0abe 1b26 06be
00000030: c52b cebd a7c2 83bd 6034 853d 9c48 67bd
00000040: 787d 24bd 60e5 973c 9620 3c3d 4412 a4bd
00000050: 7506 5d3d 1e5d 1f3b c722 18be cf8d 05be
00000060: 7ea1 123e 0b67 b83d 19db 8e3c 428c cfbd
00000070: 251b 91bd 8c30 a53d fc54 e23c d968 8e3d
00000080: edfd 483d 673f 073d 308a bf3c 21ed ac3d
00000090: 5127 a3bd f652 313d e6d3 26be 3cdd 37be
000000a0: 95f3 9d3d 31d4 873d 2761 0abe 2d79 c9bd
000000b0: 4e51 d73c 7570 933c 2506 86bd 7575 bfbc
000000c0: f5f2 6b3d d1a5 d53c b9a8 ad3d 6d4b 15be
000000d0: 0637 a23d 60ed ab3b afe6 a53d 49fd 123d
000000e0: 67d2 643d 8ac5 093d 147b 853c d502 26be
000000f0: 49e3 47bd 1303 81bd 973c fa3b b322 e83d
00000100: 0af2 e7bd 7de4 94bd 53a6 ffbd d9a2 3d3d
00000110: c3d7 353c e8d3 ae3c 19f2 223d f97c 393c
00000120: 8656 ea3c 2493 ad3c c48e 20bd ee6a 52bd
00000130: b9cc c43d 5475 acbc ff13 d63d ad41 913d
00000140: 0190 33be 3a26 2cbd 2b2b 3fbd 207e 95bd
00000150: 4c7a 97be 0c2a 9e3d 6cdd 58be ba66 26bc
00000160: 4c5a 843d 8eab a4bc 93ab ab3d 544d 063d
00000170: be61 6e3c 1e50 03be 52ca afbd 2174 53bd
00000180: d824 23bd 03d2 08bd 5a74 bcbd eb83 77bd
00000190: 05ed 003d dad6 dcbd bdd0 78bc af02 503d
000001a0: 3d10 3a3d 7c0f 25be a59a afbb 771c d9bc
000001b0: dbe4 69bc c188 a3b9 e60e be3c ec0a 8a3c
000001c0: b74a e13d e4fa 0c3d f3dc a23d acf1 0abe
000001d0: 4072 afbd eb2e a73d 7503 d53b f1c8 66be
000001e0: ebe5 2fbc 3e12 96bc e2ef 2dbe a79d 80bd
000001f0: bdeb 27be 0b3c 6ebd f2dd 8b3d dd0a 0cbd
00000200: 79a8 8d3d 85b2 3abd 2da5 2a3d 84b1 82bd
00000210: 7c38 3d3d 0f48 a63c 9157 013e e1b4 2fbd
00000220: 7b6b e6bd ab0d 09be f366 3c3d d24c e83d
00000230: 6e03 dcbd 2522 babc 5e27 a63c c78b 24bd
00000240: 3b71 ed3d 0683 1cbe d0f7 9ebc 85c5 f6bd
00000250: 3948 0cbe 07e9 abbd 1a58 cb3d 9e15 29be
00000260: a20d b5bd a10e 0bbe eb41 7a3d 8700 ad3c
00000270: 82da 30be 9dec 84bd 8d53 92bd 4d62 1f3e
00000280: 2634 143d c7fc ec3d ea96 153d 2dc9 d5bd
00000290: 98d4 c9bb 327c c93c 842a 813d c88d ce3d
000002a0: f8be 92bd 6d0e ecbc 4ee9 903d 64bb c3bd
000002b0: a9bf 90bc f7ff 4abd b20e 883d e61a 023c
000002c0: fbd9 f23d c56a 4fbc 0018 a43d 736f bb3d
000002d0: d8c1 153e 95ae eb3c 3ab4 21bd 5132 a7bd
000002e0: 3794 c7bd eccb 3fbe b2f3 963d 268f e0bd
000002f0: 8b2d 6a3d b610 153d ea71 983d c92f 66bd
00000300: 28d4 f83d 024b a53d 1ad0 78bb 5128 a43d
00000310: 94f3 88bc 5f01 87bd 9894 773c 91e8 9ebd
00000320: 9906 c03d 1669 c2bb 5a62 9ebd 35ff 803d
00000330: e25f 19be e414 26bd 9101 193d 972b d4bd
00000340: 0931 1f3d 9701 0f3e a438 fe3c a872 67bd
00000350: 26b8 693d 666d 773d 5027 b7bd 093f 6dbd
00000360: bbe9 92bd 7b02 debc e868 acbd 4710 83bd
00000370: 78a5 1f3d adfe 15bb caed 0f3e d745 a4bb
00000380: 7b18 503d f9f9 76bd d084 423d e078 d6bd
00000390: 17d2 a0bd 3d6e b43d 56e4 99bd b1be 49bd
000003a0: 9d3d 0b3d cfbf 6b3d a82d aabd bbbe 96bc
000003b0: e451 af3b 5c5f 2f3d c758 f0bd 5c5d 65bd
000003c0: 96d8 da3d dcc6 3abe 7aa8 543d 81e1 183c
000003d0: da77 7bbd cda1 11be 0e27 033d 6bd8 84bb
000003e0: f4f7 bcbd 854e a5bd b32d 92bd 25e8 8c3d
000003f0: aee3 b8bd a4b3 f23d ab09 91bd eea1 353d

fc2.bias f4 [10]
-0.039661765 0.08897878 -0.049984556 -0.095427476 -0.050597187 -0.06976554 0.023030177 -0.09419932
-0.027976787 0.035828963
00000000: 6074 22bd 823a b63d 9bbc 4cbd 7b6f c3bd
00000010: ff3e 4fbd 3ce1 8ebd c8a9 bc3c 93eb c0bd
00000020: 932f e5bc 64c1 123d
